MNIST/save/poison_model.pth (torch, 90175 bytes, 8 tensors)

conv1.weight f4 [10, 1, 5, 5]
000000 77 f8 1c bd 1a 52 cd 3a fe 9b c2 3d fb 20 63 3d
       -0.038322892 0.0015664727 0.095024094 0.055451375
000010 60 74 e6 3c eb 77 36 bd b3 aa 53 be 4a 07 6c be
       0.028131664 -0.044547956 -0.20670585 -0.23049656
000020 a9 ee 8c be 69 57 6c 3d 97 19 46 3e 4b f1 37 3e
       -0.27525833 0.05770055 0.19345699 0.1796314
000030 58 f8 c0 be 36 3e bd be 4b 99 ea bd 66 68 95 3d
       -0.3768947 -0.36961526 -0.114550196 0.07295303
000040 4c fb 04 3f c5 3e 76 3d af e6 cd be bc 6e cf 3b
       0.5194595 0.060118455 -0.4021506 0.0063303392
000050 94 50 c1 be 46 be 62 3d ea 11 a3 3e cb 9b 8c 3e
       -0.3775679 0.05535724 0.31849605 0.2746261
000060 6e f4 ec 3d c4 6d dd 3e 8b bb a4 3e ed 45 94 bd
       0.11570059 0.43247807 0.32174334 -0.072399
000070 10 94 5a be 6a 18 9b be 13 21 a5 be 8e b5 e5 3d
       -0.21345544 -0.30292064 -0.32251796 0.112162694
000080 cf 5d 11 be 94 e0 86 bd a5 b9 22 be e0 0b f1 be
       -0.14195941 -0.06585804 -0.1589113 -0.47079372
000090 c8 f1 8d be fa 98 ad bc 6b c1 ad 3b d1 9d 1d 3d
       -0.27723527 -0.021191109 0.0053025982 0.038480584
0000a0 ae ca 21 bc 56 f9 3e be 28 ea 07 be 63 4c 53 be
       -0.009874983 -0.18649802 -0.13272917 -0.20634608
0000b0 f7 0c 5c be 8c 0a c5 bd 22 27 06 3e 15 c5 fc 3d
       -0.2148932 -0.09621152 0.13100865 0.12342278
0000c0 ec 84 89 bd 13 a1 38 be be 69 16 be e1 50 d5 bd
       -0.06714806 -0.18030195 -0.14688775 -0.10415817
0000d0 e4 93 5a be fe 63 4a be c3 4c 1b be a0 68 ab bd
       -0.21345478 -0.19764706 -0.15166001 -0.08369565
0000e0 96 55 9c 3c 80 d8 88 be fa 42 c0 bd da 9e f1 bc
       0.01908378 -0.26727676 -0.09387775 -0.029494692
0000f0 e7 7a c9 bc 16 34 ed bd 51 46 9a be 88 94 68 bd
       -0.024594737 -0.115822 -0.30131772 -0.056782275
000100 1f bd 8c 3e 36 39 81 3c 74 3c 4b bd 66 54 94 3c
       0.27488038 0.01577435 -0.0496182 0.01810665
000110 fb 45 02 3c 68 13 45 bf fd c7 3a be dc 9c 16 be
       0.007951255 -0.76982737 -0.18240352 -0.14708275
000120 6f a1 2c be 58 b1 ab bf 05 e9 9b 3f 6b e4 d9 3d
       -0.16858457 -1.3413496 1.2180487 0.106392704
000130 34 19 83 bd 11 5c d0 be b3 02 78 be 84 f5 84 be
       -0.064012915 -0.4069524 -0.2421978 -0.25968564
000140 cc b9 0b be 00 ee 3c 3e d2 6c 73 3d d3 fb 89 be
       -0.13645095 0.18450165 0.05942995 -0.2694994
000150 6b 9d 4e be c3 a8 be bd 7e b3 e2 3d fc 23 2d 3e
       -0.20177238 -0.093095325 0.11069392 0.16908258
000160 be 0d ce 3c 3f a5 b5 be d0 fc 80 be 82 f1 8f 3d
       0.025153037 -0.35477635 -0.2519288 0.07028486
000170 6e 2c 54 3e 62 de 4c 3d 8b 8f b8 be ea 42 c5 bd
       0.20720074 0.05001677 -0.36047015 -0.096319035
000180 c5 61 8b 3e ed cb af 3d 07 5d 1b be 26 72 71 be
       0.2722303 0.08583818 -0.15172206 -0.235787
000190 bb df 6f 3e a1 d8 31 3e 15 be 28 be 60 4b a0 be
       0.2342519 0.17367794 -0.1647876 -0.31307507
0001a0 bd a1 f2 be 86 53 f4 3d c1 ec bb be d2 86 d6 be
       -0.47389022 0.11929993 -0.36704066 -0.41899735
0001b0 5a 20 32 be 7f 9c b9 bd d4 92 3f be 61 a7 97 be
       -0.17395154 -0.090630524 -0.18708354 -0.29619887
0001c0 54 fe d9 bd c7 40 8b 3e 2b 7a 63 3e b7 e1 c4 be
       -0.10644212 0.2719786 0.22214572 -0.38453457
0001d0 a5 b8 3a be 40 d3 04 3e 9f d1 e7 3d 04 6b 66 bd
       -0.18234499 0.1297121 0.11319279 -0.0562544
0001e0 a0 f2 36 be 60 1f 67 3b d4 d5 b3 bd 63 0e 7d 3e
       -0.17865992 0.0035266504 -0.08781019 0.2471252
0001f0 27 28 94 bd 52 4c c6 bd 8e 3d 9c 3d 04 61 ad 3c
       -0.07234221 -0.09682526 0.07628928 0.021164425
000200 37 2b 63 be 3a bd 07 bf 13 ea c0 bc 15 db 76 bd
       -0.22184454 -0.5302311 -0.023549115 -0.060267527
000210 0e 32 98 be 54 7e 90 be c5 9f 40 3e 6e 81 10 3b
       -0.2972569 -0.2822138 0.18810947 0.0022049802
000220 3c 96 2a be af 1c 97 bd 22 b2 83 3e 3e 8c 04 3f
       -0.16658872 -0.07378518 0.25721842 0.5177649
000230 48 44 24 3e cb ca 94 3e c0 bc a5 3e 8e 5d b2 3d
       0.16041672 0.2906097 0.32370567 0.087092504
000240 65 ed 55 be f9 a2 92 be 32 0f 34 be 10 86 2b be
       -0.2089134 -0.28639963 -0.17583922 -0.1675036
000250 48 31 e9 be cb 6a 6e be 39 db b6 be e4 ef b8 bc
       -0.4554541 -0.23282926 -0.3571413 -0.022575326
000260 a6 a9 e4 3d f3 49 aa 3e f3 6c 80 3e 8c a5 f1 be
       0.1116517 0.33259544 0.25083122 -0.47196615
000270 48 29 31 be 7f 85 81 be e2 43 e1 3d a3 64 8b 3d
       -0.17300904 -0.25297162 0.10999276 0.06806304
000280 3a 66 d0 bd 58 dd 9f be 9c 90 0b bf ee b3 ad be
       -0.10175748 -0.3122356 -0.5451753 -0.33926338
000290 7d f8 02 bf 6d 94 a2 bc 04 d4 1c bd 88 0a a5 bd
       -0.51160413 -0.019846166 -0.03828813 -0.08058649
0002a0 54 04 bf be 31 8c ee be a5 48 9c 3e 0a 58 c0 bd
       -0.3730799 -0.46591333 0.30524173 -0.09391792
0002b0 8c ee 47 3e 5f 60 b5 3e 06 8f e5 3b ab 82 76 3e
       0.19524592 0.35425088 0.007005575 0.24073283
0002c0 6a bc 54 3d 55 5a 4a 3c 1a ce 3c 3e a4 50 a9 3e
       0.0519375 0.012350638 0.18437997 0.33069336
0002d0 a6 b5 96 bd f0 7b f6 3b 40 6c 39 3a 2c c6 3d be
       -0.073588654 0.0075220987 0.00070733204 -0.18532628
0002e0 0e 90 86 3e 7a ae 6b bd 5b 46 cb 3d 05 2a 06 3e
       0.2628178 -0.05753944 0.099255286 0.13101967
0002f0 60 55 77 3b e6 27 39 3c 42 3c 5e be 97 e6 22 3e
       0.0037740096 0.011301016 -0.21702674 0.15908276
000300 42 0b f8 bb fc 7b 00 bc c7 46 d8 be 80 5c 0c bf
       -0.0075697014 -0.00784206 -0.422415 -0.54828644
000310 57 3a dd be 4e c6 a9 be 75 f2 a9 be 0d 75 32 be
       -0.43208572 -0.33159107 -0.33192793 -0.17427464
000320 79 29 21 3e b1 90 8f 3d 62 d0 90 be 58 81 70 be
       0.15738477 0.070100196 -0.28283983 -0.2348684
000330 19 3b 59 be 76 f1 93 3e 7d 6e 63 be 13 7b 16 bc
       -0.2121395 0.28895158 -0.22210117 -0.009184617
000340 f3 12 79 bd e2 ec 18 bd 84 69 61 3e e4 8b ee bd
       -0.060809087 -0.037335284 0.22012907 -0.11647776
000350 a1 7a 8e bd 7b 71 27 be 60 1d 5a bd 8a d4 03 3e
       -0.06956983 -0.16351883 -0.05325067 0.12874046
000360 2c 35 49 be c1 92 52 be e8 be b4 3d 2f 54 a3 bd
       -0.1964919 -0.20563795 0.08825475 -0.07975041
000370 56 5b b3 bc dd df 11 bd 6f 0b 35 be 98 8e b9 bd
       -0.021894138 -0.035613883 -0.17680143 -0.09060401
000380 92 5f 11 be 7f 83 4d 3d 78 4b 98 be d0 c5 a7 be
       -0.14196613 0.050174233 -0.29745078 -0.32768106
000390 37 9c b8 bd 76 54 28 3e ee 81 4c 3c 1a 7c 0c 3c
       -0.090141706 0.1643847 0.0124821495 0.00857451
0003a0 14 04 5d be 24 66 71 3e 35 9c 87 3e 06 d3 08 be
       -0.21583587 0.2357412 0.26486364 -0.13361749
0003b0 f2 84 8c 3d d9 b9 88 be b9 5f 4e be 60 0c 2b 3e
       0.06861295 -0.2670429 -0.20153703 0.1670394
0003c0 1a 8e f7 3c cb 10 0e 3e cc 1f c4 bd c5 eb 3c be
       0.030219126 0.13873594 -0.09576377 -0.18449314
0003d0 2a 09 06 3e 55 48 ad be 8f 67 0f 3c cf 84 85 be
       0.13089433 -0.33844247 0.008752718 -0.26077887
0003e0 9c 2a 9a be 61 4a 0b be
       -0.30110633 -0.13602592

conv1.bias f4 [10]
000000 94 bb be bf 01 e9 66 bf b6 a8 c4 bf 5e b4 79 bf
       -1.4900994 -0.90199286 -1.5363986 -0.97540843
000010 cc db 96 bf d6 5f 80 bf 72 5f 99 bf ab 6c 90 bf
       -1.1785827 -1.0029247 -1.1982253 -1.1283163
000020 97 2f 78 bf bc 7e 4e bf
       -0.96947616 -0.8066213

conv2.weight f4 [20, 10, 5, 5]
000000 2e f0 60 bc 89 86 ab 3d 53 26 dd 3d 1f b2 a6 3d
       -0.013729138 0.0837527 0.107983254 0.08139443
000010 26 4f d4 3d 6b 70 00 be af af db bd a6 05 8d 3d
       0.10366659 -0.12542884 -0.10726868 0.06885843
000020 6d 56 52 3d d0 10 b3 3a bc a4 0e be e6 f3 17 be
       0.051351953 0.0013661627 -0.13930029 -0.14839134
000030 76 bb cf bd 8c 64 c5 3d 17 d5 f2 bd 42 d0 4f be
       -0.10143177 0.096383184 -0.1185705 -0.20294288
000040 70 43 5e bd 0c 75 61 bd e0 2c 61 bd f1 ff ce bd
       -0.054263532 -0.055043265 -0.054974437 -0.10107411
000050 c4 73 a3 bd 44 40 8d bc c9 b5 3d bd 2c 0c 1c bd
       -0.07981065 -0.017242558 -0.046315942 -0.038097546
000060 18 41 31 3d 18 93 04 3d 1b 1c c4 3c 2c a9 f0 3c
       0.04327497 0.032366842 0.023939183 0.029377542
000070 90 5f a1 bd d6 1c a0 bc 73 3f 55 bd 16 d1 d0 bc
       -0.07879555 -0.019545 -0.052062463 -0.025490325
000080 ab 2e 94 3c 55 6c 37 bd 3a 7d 75 bc 1b 44 00 bd
       0.01808866 -0.044781048 -0.01498347 -0.03131495
000090 5e 4f 80 3b e0 d4 11 bd ff cb 04 3c 3f c5 1c bd
       0.0039157113 -0.035603404 0.008105277 -0.038274046
0000a0 0e b8 0e 3e c8 6f 3a 3c 73 20 e9 bd 57 74 3d 3d
       0.13937399 0.01137919 -0.11383142 0.04625353
0000b0 a3 94 b4 bc 05 2e b5 3d a4 d2 24 bd be 46 e8 bd
       -0.022043532 0.08846668 -0.040239945 -0.11341618
0000c0 6c 02 80 bd 78 73 0d 3d c2 46 9e bd 7a e6 85 bd
       -0.06250462 0.034533948 -0.0772834 -0.065381005
0000d0 77 99 98 3c 1e ef dc bb 55 a9 33 3e 50 7d fa 3c
       0.018627865 -0.006742372 0.17545064 0.030577332
0000e0 34 b0 09 be 19 0a 1b be 75 2d 9b bd 00 18 ff 39
       -0.13446122 -0.1514057 -0.075770296 0.00048655272
0000f0 e7 7d 57 be a9 09 3a be f8 6d bc bd e8 06 e2 3d
       -0.21044122 -0.18167748 -0.092006624 0.110364735
000100 95 a6 52 3d 1d 33 f0 bd c8 93 26 bd 59 3b e5 3c
       0.051428396 -0.11728499 -0.04066828 0.0279824
000110 d4 ce 55 3d 44 39 c3 bd 22 8b e6 3c 20 f3 20 bb
       0.0521992 -0.09532407 0.028142516 -0.0024558976
000120 ed 5e 2d 3d 02 33 e5 bc 7e 54 8d be e6 1f f9 bb
       0.042326856 -0.027978424 -0.27603525 -0.0076026795
000130 d6 af 31 3d b9 cd b4 bb c7 ba b3 bd 11 0a a4 3d
       0.04338058 -0.005517688 -0.08775859 0.080097325
000140 63 df d6 bd 9e f3 da bd c0 85 63 bb ac 7c ab 3d
       -0.104918264 -0.106909975 -0.0034717172 0.08373389
000150 ec 15 57 bc 7e f1 98 bc 04 93 a0 bd ec 55 d2 ba
       -0.013127785 -0.01866984 -0.07840541 -0.0016047335
000160 6b dc 80 3d 1d 10 46 bd 4e a6 2b bd a0 50 28 bc
       0.062920414 -0.04835521 -0.041906647 -0.010273129
000170 0b d6 bb bd ff a7 f3 3b 60 3c bc bb 34 39 4d bd
       -0.09171685 0.007435798 -0.005744502 -0.05010338
000180 dc 3a 20 be b0 a0 ca bd 63 90 9f bd 19 c2 05 3e
       -0.15647453 -0.0989393 -0.077912115 0.13062324
000190 3f fc 12 be 04 e8 1f be 76 85 bb bd 8a 4a 2b bd
       -0.14354037 -0.1561585 -0.09156315 -0.041819133
0001a0 bc 2d 40 3e cb cb ca 3d 48 63 70 bd d0 90 14 be
       0.18767446 0.09902152 -0.058688432 -0.14508367
0001b0 27 e8 35 be 9f 15 c3 bd 46 b1 90 3d 6c 11 66 bc
       -0.1776434 -0.09525608 0.07065062 -0.01404224
0001c0 81 b1 24 be 36 d6 3b be d2 ac 46 be b7 34 da bd
       -0.16083337 -0.18343434 -0.19401863 -0.10654586
0001d0 82 a4 61 3d 00 02 c3 3d bc b9 11 3b 55 11 f9 bd
       0.055088528 0.09521866 0.002223595 -0.12161509
0001e0 78 e4 2d 3e 57 b1 19 3e 65 9d 30 bd 85 7d 50 3d
       0.16981685 0.15009056 -0.043118853 0.050900955
0001f0 e8 5f 4b bd 1c 9b 3b 3d 52 ad dc bc 87 85 8d 3c
       -0.04965201 0.04580222 -0.026938114 0.017275585
000200 49 67 44 bc a3 4d a3 bc ce fe 75 bd 08 b6 97 bc
       -0.011987516 -0.019934481 -0.060057454 -0.018519416
000210 a8 60 d3 3d 96 89 d0 3d 6d b4 0b be 9a 2f 7d 3d
       0.1032117 0.101824924 -0.13643046 0.061812975
000220 cb cb f0 bc 8c 98 0f bb 4b 16 b2 bd 28 e8 1e bd
       -0.029394051 -0.0021910993 -0.08695658 -0.03879562
000230 9c 75 55 bd ae a7 92 bd 08 68 d2 bc cc 97 f7 3c
       -0.052114114 -0.071608886 -0.025684372 0.03022375
000240 11 39 09 be c2 85 9f bd dd f3 63 3d 76 b6 44 bd
       -0.13400675 -0.07789184 0.055652488 -0.04802557
000250 3f 22 b2 bb 4d a9 88 bd 2c 33 15 be 9d 1c 3a bd
       -0.0054362114 -0.066729166 -0.14570302 -0.045437444
000260 fe 65 13 bc 79 31 17 3d 28 8a 94 3d 85 2d ef bd
       -0.008996485 0.036912415 0.07252914 -0.11678604
000270 88 8c b0 3d 67 96 ff 3d a8 43 b2 3d db 51 80 3d
       0.08620554 0.12479859 0.08704311 0.06265613
000280 c8 fa d5 bb b4 92 09 3b e6 d2 ca 3d ea c1 c5 bc
       -0.0065301396 0.0020991983 0.09903507 -0.024140317
000290 10 8a 82 bd 00 d7 09 bd fe e0 55 3d 12 ea c1 3d
       -0.063739896 -0.033652306 0.052216522 0.094684735
0002a0 34 de 87 bd 8f 5c 7a be dc a5 58 bd 96 ab 94 bd
       -0.06634179 -0.24449371 -0.05289255 -0.0725929
0002b0 68 d2 4f 3d 5b 1d 3a bd 06 79 67 be dc fa 31 be
       0.05073777 -0.04543815 -0.2260476 -0.17380852
0002c0 ea 36 08 be c7 0b 5f be ee bc 28 be 29 d6 0d be
       -0.13302198 -0.21781836 -0.16478321 -0.13851227
0002d0 0d 41 85 bc 2b 7d b6 3d de 9d 8d 3d 14 bd 87 bb
       -0.01626637 0.08910593 0.069148764 -0.004142413
0002e0 c2 09 b4 be e5 a7 91 3d dd ce b4 3c 48 a4 9b 3d
       -0.35163695 0.071121015 0.022071296 0.075996935
0002f0 6f 0e 28 3c a8 3a 91 be 5e 7f d3 3d 0d 38 4c bc
       0.0102573475 -0.28365064 0.10327028 -0.012464535
000300 66 04 f1 bc 44 20 72 bd 57 6d 0d be b0 bd 0c bd
       -0.029421043 -0.059112802 -0.13811241 -0.034360588
000310 74 a0 75 be 94 c4 e3 bd c1 40 10 be 57 48 c9 bd
       -0.2398699 -0.11121479 -0.14087202 -0.09828251
000320 d7 ba 05 be 00 c1 e2 bd 34 25 86 3c 70 85 44 bc
       -0.13059555 -0.11071968 0.016375162 -0.011994705
000330 08 c8 96 bd b3 94 8a bd 8c 93 06 be 18 cc 8e bd
       -0.07362372 -0.067666434 -0.13142222 -0.069725215
000340 24 51 c2 bc 2e f1 40 bc 1b a9 2b bd e0 ec 11 bd
       -0.023720331 -0.011776252 -0.04190932 -0.035626292
000350 ee 50 99 bd de f5 c3 bc d7 34 67 3d fb 11 fb bc
       -0.07486139 -0.02392095 0.056446876 -0.030648222
000360 e2 8b 35 bd 9c 87 b3 bd 8f 58 10 be c4 7c 8d 3c
       -0.044322856 -0.087661 -0.14096282 0.017271407
000370 57 ac 1e be fb 18 3d be 35 eb 53 be a3 6f 06 be
       -0.1549543 -0.1846656 -0.20695193 -0.13128524
000380 a9 7c 38 3c 72 8d 88 bd 91 28 9b bc f0 fd 4a 3b
       0.01126019 -0.066676036 -0.018940242 0.0030974112
000390 d4 d0 7c bc 66 39 cc bc 2a 59 07 be 78 32 81 bc
       -0.015430648 -0.024929713 -0.13217607 -0.015771136
0003a0 17 3d 9e 3d 87 43 71 3d 28 32 bb 3c b5 61 80 bd
       0.07726496 0.05890229 0.022851065 -0.06268636
0003b0 eb fc 9f bd b8 d9 2a bd b2 fc 9e 3d 0d c7 1a 3d
       -0.07811912 -0.04171154 0.077630416 0.037787486
0003c0 d6 88 4b bd d7 d5 c0 3d 4f 62 f1 3d 10 f4 0c bc
       -0.049691044 0.09415787 0.11786329 -0.008603111
0003d0 20 db 1d 3d f2 da 90 bd 78 19 a9 3c 06 04 ba 3c
       0.038539052 -0.070730105 0.020642027 0.022706997
0003e0 9d e6 4f bd 5e 11 a9 3c ea 8b 09 be bc 25 49 bd
       -0.05075704 0.020638164 -0.13432279 -0.049108252
0003f0 4b d4 38 3c 78 27 ae 3d 08 46 a5 3d bd ef d7 bd
       0.011281083 0.08503622 0.08069998 -0.10543773

conv2.bias f4 [20]
000000 99 8a 1a 3e ab b6 12 be 1e 46 ea bb dd 59 9f 3d
       0.15091933 -0.14327495 -0.007149472 0.07780812
000010 f8 18 c9 bd 3f 65 61 be 3e 1c 8f be 43 be d2 be
       -0.098192155 -0.22011279 -0.27951235 -0.41160783
000020 b0 2b 1f be 8e a5 90 3d d6 4f ee bc 98 eb 10 3b
       -0.15544009 0.07062827 -0.029090803 0.002211308
000030 72 cf b5 3d ba b3 94 be 43 3c 8f be a3 d3 1b 3e
       0.08877458 -0.2904337 -0.27975664 0.15217452
000040 1a 9c c4 3d 01 78 11 3d e6 2b c0 3d 24 02 5a be
       0.096000865 0.035514835 0.09383373 -0.21289879

fc1.weight f4 [50, 320]
000000 54 97 5d 3d c7 e9 3e 3e 00 b2 d2 bc 53 60 9e 3d
       0.054099396 0.18643866 -0.025719643 0.07733216
000010 86 0a f5 bd 2f eb 3d 3d d6 13 7c 3d 20 4c 29 3c
       -0.11964898 0.046366867 0.061542355 0.010333091
000020 71 1f 91 bd 70 22 82 bd ef 0e c2 bd 00 83 99 bd
       -0.07086075 -0.06354225 -0.094755046 -0.074956894
000030 86 47 86 bd 3a 19 d1 bb 70 1b 9c bc dd 89 65 3c
       -0.06556611 -0.006381181 -0.019056052 0.01400992
000040 0e 19 79 bd d0 6f 94 bc 48 a0 19 bb 7e 2a 10 bc
       -0.06081491 -0.018119723 -0.0023441482 -0.008799193
000050 d7 73 f1 3c 4c 90 09 bd 15 2f ab bb 2e 2c 79 bd
       0.029474182 -0.033584878 -0.0052241185 -0.06083315
000060 7a 8c e3 bb 6e 38 f5 bc 75 f4 b7 3c 0b e1 76 3d
       -0.0069442363 -0.029934134 0.022455433 0.06027321
000070 40 b2 40 bd a7 54 2c 3d 85 e2 52 bb 0d df a2 bb
       -0.047044992 0.04207292 -0.0032178473 -0.0049704374
000080 33 67 86 3d 13 d6 96 bd 41 63 ef 3b b9 ae 10 3d
       0.065626524 -0.0736505 0.007305533 0.03532288
000090 3a 3d 90 bd d4 f4 61 be d4 6a 9d 3c 83 55 d6 3d
       -0.07042928 -0.22066051 0.019215979 0.10465529
0000a0 30 69 36 bd 4a 8e bd bd 15 15 92 3c bf 4d 1e 3d
       -0.04453391 -0.09255655 0.017832318 0.038648363
0000b0 14 53 ee 3d 51 a8 6f bd 16 79 03 bd 63 02 fc bc
       0.1163694 -0.05851013 -0.0320979 -0.030762857
0000c0 b2 e3 0a be c8 16 81 3c 12 18 f8 bd 09 69 a3 3d
       -0.13563421 0.015757933 -0.12113966 0.07979018
0000d0 3a d6 34 bc de 86 6f 3d 93 6d ea 3d da 21 c2 3d
       -0.011037404 0.05847823 0.11446681 0.09479113
0000e0 e7 e3 03 bd 77 bc 07 3e 15 c6 06 3e fa ac 3d bc
       -0.032199766 0.13255487 0.131615 -0.011576885
0000f0 af a5 38 bd a1 85 04 bd dc 34 4d 3d a6 84 a3 bd
       -0.045079883 -0.032354 0.05009924 -0.07984285
000100 7b 57 bb 3d b4 ae 79 3d dc 69 62 3d 5e 3f 15 bd
       0.09147545 0.060957626 0.055276737 -0.036437385
000110 1a 18 b3 bd 43 32 48 be e3 17 2c bd c7 ae 2d 3c
       -0.087448314 -0.19550423 -0.042014968 0.010600752
000120 06 f8 30 be bf 5b 29 be 8a 8d e3 3b bc 89 b0 3c
       -0.17282113 -0.16538905 0.006944363 0.021550052
000130 bd 20 40 3d c6 d3 64 bd 92 04 e1 bc d6 20 6f 3d
       0.04690622 -0.055866025 -0.027468 0.058380924
000140 71 04 86 3d 4c 9d 6e bc dc 0b 4e 3d 3e 51 04 be
       0.06543816 -0.01456387 0.05030428 -0.12921616
000150 50 d8 9c 3d 59 70 5f 3d 0b 28 05 3d 4e f8 21 be
       0.07658446 0.054550502 0.03250889 -0.15817377
000160 5c 6a 1b 3d 14 c0 96 3c 2b 4c 9a bd 94 4b e8 bd
       0.03794323 0.018402137 -0.07534059 -0.113425404
000170 b1 05 44 bd 51 b1 fb bc 05 8c 8c bc 5c 37 85 3c
       -0.04785699 -0.0307242 -0.01715661 0.016261749
000180 81 29 92 bd d1 f7 4e bd 05 5b 65 bd 0e 1f 19 be
       -0.071368225 -0.050529305 -0.055995006 -0.14953253
000190 98 43 f8 bd 96 fc f4 3d b0 15 8a 3c 67 19 89 bd
       -0.121222675 0.119622394 0.016856045 -0.06694298
0001a0 56 74 b1 bd 13 bf c2 3d 00 fc ee 36 bc b2 15 3d
       -0.086647674 0.09509101 7.1222894e-06 0.036547408
0001b0 66 a9 d5 bc b1 27 4c 3d 60 5d d4 ba fc 7e a0 bc
       -0.026081752 0.04984254 -0.0016202144 -0.0195918
0001c0 6a f7 d7 3d cc c2 a2 bc aa 76 0f bc c2 cc 86 bd
       0.10545237 -0.019868277 -0.008756319 -0.06582023
0001d0 cd 44 f9 3d c6 c4 48 3d 36 f5 05 be b9 cf ac bd
       0.12171326 0.049015783 -0.13081822 -0.084380575
0001e0 1b 07 35 3d 12 c2 2f 3c 8e 51 f3 bc 0e b5 79 3d
       0.04419623 0.010727422 -0.029701974 0.060963683
0001f0 34 74 af bc 7c 01 3b 3d ce bb da 3c ba 4f 04 3c
       -0.021417715 0.045655712 0.02670088 0.008075649
000200 74 3c 53 be 8b 0d b4 bd 24 0a 7d 3c f8 38 3c bd
       -0.2062853 -0.087916456 0.015444312 -0.045952767
000210 3c b2 55 bd 1e 0f bf 3c 27 5c 92 3d 34 2b 40 3c
       -0.05217193 0.023322638 0.07146483 0.01172905
000220 37 2c a6 bd 3d db 93 3d 60 b7 8c 3d a2 e5 31 3e
       -0.08113902 0.07219551 0.068709135 0.17372754
000230 60 d5 f3 bc 47 16 78 3b fd 43 9f 3c 43 0f 95 3c
       -0.029764831 0.0037855075 0.019441599 0.018195754
000240 96 de 9a bd 36 c0 89 3d 71 bf 36 3d 35 92 5a 3b
       -0.07561986 0.067261145 0.044616167 0.0033351306
000250 f9 f6 04 3e e8 56 f7 3d 67 85 f2 3d f4 76 29 3c
       0.12984838 0.12077123 0.11841851 0.010343302
000260 0a a5 a1 bd 83 1c 93 bd 6d 88 f6 3b e7 9b 02 3d
       -0.07892807 -0.071831726 0.0075235874 0.03188696
000270 1c 79 d8 bb 92 31 ce bd 4c 4c 28 bd b7 98 38 bd
       -0.0066062342 -0.100680485 -0.041088387 -0.045067515
000280 03 56 ac bd 27 f6 55 bd 60 55 eb bb 3c 44 16 3d
       -0.08414843 -0.052236702 -0.0071818084 0.036686167
000290 f8 25 94 3d a6 dc e7 3d a5 96 1b 3d d0 5c 7c bc
       0.072338045 0.11321382 0.037985463 -0.015402988
0002a0 2a ba 4e 3d cc 96 f2 3d b8 45 86 3c ad 5c 04 be
       0.05047051 0.118451685 0.016390666 -0.12925978
0002b0 d3 48 80 bd 8d 7a ff bc 29 a4 9b 3b 00 f4 0b 3d
       -0.0626389 -0.031186366 0.004749794 0.034168243
0002c0 b6 1f bb 3c 3d c9 b3 3c 26 45 fa 3d ee 5c b2 3d
       0.02284227 0.021946544 0.1222022 0.08709131
0002d0 29 fe 08 bd 7a ab 65 be ef aa 00 be 4a 24 a9 3d
       -0.03344551 -0.22428694 -0.12565206 0.08258875
0002e0 15 8f 1d be 94 46 88 be 4b ec 8b bc b6 fd 50 bd
       -0.15386613 -0.26616347 -0.017080447 -0.051023208
0002f0 63 4b f3 3c 4a 82 dc bc bd f5 93 3d 27 e6 10 3d
       0.029699033 -0.026917595 0.07224605 0.03537574
000300 46 b0 ed bd 92 57 73 3d 6a 7b 86 3c 74 45 99 3c
       -0.11605887 0.059409685 0.01641627 0.018709876
000310 50 27 2b 3b 5e fc 8a 3d 67 34 ed 3d c2 4e 9c 3d
       0.0026115961 0.067864165 0.115822606 0.07632209
000320 3c 3d 99 bd 96 9c a1 bd a0 28 ae 3c 13 c5 c9 3b
       -0.07482383 -0.078911945 0.021259606 0.0061575263
000330 d1 83 09 bd 4c 1f 60 3c 71 73 2d bd d6 6e b4 bd
       -0.033572976 0.013679337 -0.04234642 -0.08810203
000340 8c 96 3b 3d 65 62 1a 3d 36 14 a6 bd 58 22 0d be
       0.04579787 0.037691493 -0.08109324 -0.13782632
000350 c3 92 0d bd 30 8a 4c 3d de 47 88 bd d9 a4 4f bd
       -0.03456379 0.049936473 -0.066543326 -0.05069432
000360 80 45 81 39 7a f7 88 3d 87 59 ae 3d 14 fb 80 3c
       0.0002465658 0.066878274 0.0851317 0.015744723
000370 58 4b 0a 3d f6 14 c3 3c fc e6 3f 3d f6 cc ea bb
       0.03376326 0.023813706 0.046851143 -0.0071655465
000380 46 e7 bf 3d 80 89 e6 3d 80 4e 0a ba 3e c3 8c 3d
       0.09370284 0.11256695 -0.00052759796 0.06873177
000390 d0 c1 51 3d 15 c4 5e bc b7 45 16 3d 02 cd 59 3d
       0.051210225 -0.013596554 0.03668758 0.053174026
0003a0 9a f6 04 be 25 e5 89 bd 10 24 e5 3a 00 e2 f0 bd
       -0.12984696 -0.06733159 0.0017482061 -0.11761856
0003b0 0c a1 cd bd f9 ab 89 bd 51 47 c7 bd 54 88 43 bc
       -0.10040483 -0.06722254 -0.097303994 -0.011934359
0003c0 87 8c 5f 3d ae 3b 05 3d 18 6e ef 3c a8 a3 84 bd
       0.054577377 0.032527618 0.029227301 -0.064765275
0003d0 10 e1 5a 3b 31 64 03 bd 73 cc 15 bd d3 b8 9b bd
       0.0033398308 -0.03207797 -0.03657193 -0.07603612
0003e0 0a c3 e1 bc 1c 16 86 bc b1 af 21 bd 58 21 61 3d
       -0.027558822 -0.016367964 -0.039474193 0.05496344
0003f0 f3 b8 74 3c 08 b7 27 bb 23 48 6c bd 82 0d 05 3e
       0.014936673 -0.0025591273 -0.057685982 0.12993434

fc1.bias f4 [50]
000000 c6 5a dd 3e 6f 62 40 3e 87 32 ac 3e 95 fa e3 3d
       0.43233317 0.1878755 0.336323 0.11131779
000010 89 99 c4 3e f4 4d b8 3e 8e d2 02 3e a0 25 42 3e
       0.38398388 0.35996974 0.12775633 0.18959665
000020 1b b6 25 3e 31 8d 12 3e 3d b8 68 3e 2e b5 ef 3e
       0.16182749 0.14311673 0.22726531 0.46817917
000030 a5 cf 12 3e 70 52 a5 3e d1 82 a9 3e 53 a1 5c 3e
       0.14337023 0.32289457 0.33107617 0.21545915
000040 16 3d 0b 3e 28 01 33 3c c1 4d 29 3e bc be 3d 3d
       0.13597521 0.010925569 0.16533567 0.046324477
000050 b3 ed 91 3e 93 39 ba 3d 54 d0 5a 3e 96 28 61 3e
       0.28501663 0.09093013 0.21368533 0.21988139
000060 2c 82 ae 3d 52 28 ef 3e 74 32 d6 bd 92 73 96 3e
       0.08520922 0.4671045 -0.10458842 0.29385048
000070 eb b4 c6 3e 90 22 39 3c 7a 8d 22 3e a6 4d db 3e
       0.38809904 0.011299744 0.15874282 0.4283268
000080 1f e8 4b 3e 51 5d eb 3d 95 1a 22 3e 78 77 9e 3e
       0.19912766 0.11492408 0.15830453 0.30950522
000090 41 4d aa 3e e6 ed bf 3e 4b 67 b9 3d 4e 3d 15 3d
       0.33262065 0.3748619 0.09052905 0.036435418
0000a0 62 d4 0c 3e 80 9d cf 3e c1 00 64 3e d8 fb 46 3e
       0.13752893 0.4054985 0.22265913 0.19432008
0000b0 7c 74 f5 3e da 16 2d 3e 58 d1 d6 3d ea 56 c0 3d
       0.47940433 0.16903248 0.10489148 0.093915775
0000c0 e3 62 27 3e 93 91 41 3e
       0.16346316 0.18903188

fc2.weight f4 [10, 50]
000000 e9 6b ff 3e 40 0e be 3d 7b 8d 07 3f 33 a9 d7 3e
       0.49887016 0.09280062 0.5295026 0.42121276
000010 2b ae 01 3f 5b 15 1a 3f cf 3a a3 3e 4e 7c b0 3e
       0.50656384 0.60188836 0.31880805 0.34469837
000020 ff 4c 0f 3f 0d c2 03 3f d7 fd 07 3f 68 14 0c 3f
       0.5597686 0.51467973 0.53121704 0.5471864
000030 77 b5 c9 3e 80 be 1f 3f a0 9f 08 3f 41 f1 d3 3e
       0.3939626 0.62400055 0.5336857 0.41395
000040 56 0e dd 3e 8a 50 fb 3d 37 07 a6 3e ec 32 78 3e
       0.43175 0.12271221 0.3242738 0.24238175
000050 06 26 c8 3e af ec 8f 3e 3b 1c d8 3e 0d 9b 0a 3f
       0.3909151 0.28110263 0.42209038 0.5414284
000060 d0 3a 1e 3f 10 d1 0d 3f 9a eb d1 be a6 ca be 3e
       0.6180849 0.5539713 -0.41000062 0.37263983
000070 81 5f b5 3e 38 b3 0e bf 4b e0 d9 3e d7 3d 0f 3f
       0.35424426 -0.55742216 0.42553934 0.55953735
000080 d4 80 90 3e b8 03 cf 3e ef f2 eb 3e 19 2b cf 3e
       0.28223288 0.40432525 0.4608378 0.40462568
000090 0f 17 f3 3e 58 bc cf 3e fa ab f5 3e bd 12 83 3e
       0.4747853 0.40573382 0.4798277 0.25600234
0000a0 75 79 f2 3e 92 37 0e 3f b6 56 db 3e 57 66 02 3f
       0.4735829 0.55553544 0.42839593 0.5093741
0000b0 1f d9 0a 3f 2f bc 01 3f eb 17 0a 3f 16 06 a2 3e
       0.5423755 0.5067777 0.53942746 0.31645268
0000c0 b3 d6 15 3f f0 59 b8 bc 94 ba 01 3f fa 84 0e 3f
       0.5853073 -0.022503823 0.5067532 0.55671656
0000d0 ae 51 a4 be cb c8 36 be b0 15 d1 3e e3 c1 28 3f
       -0.32093567 -0.17850034 0.4083686 0.6592085
0000e0 d7 59 ea be ee c2 bd be eb 70 6d be 04 14 98 be
       -0.45771667 -0.37062782 -0.23187606 -0.2970277
0000f0 37 15 b0 be cd 42 99 3e 84 cc 6c be 0d 8d 21 3f
       -0.34391186 0.29933777 -0.23124892 0.6310585
000100 e7 e7 dc be de 8f bb be ed c1 97 be c4 43 57 bc
       -0.43145677 -0.366332 -0.2964014 -0.013138715
000110 18 88 a9 be 37 70 ce be fa bb d4 3e 90 d0 be be
       -0.33111644 -0.40319988 0.41549665 -0.37268496
000120 55 f2 0f bf fc 01 cc be 11 ac 81 bd 2f 44 0a 3f
       -0.56229144 -0.39845264 -0.06331647 0.5401029
000130 c1 28 96 be a8 1e dc bd 3f 99 be 3e a9 46 85 3e
       -0.29327968 -0.10748035 0.37226292 0.26030472
000140 7d dd cd be 0b ff 95 3e 1c 03 7e be 0d 90 e8 be
       -0.40208045 0.29296145 -0.24805874 -0.45422402
000150 a2 97 c9 be dd 89 d5 3e e7 20 e1 3e d9 14 12 3f
       -0.393735 0.41706744 0.43970415 0.5706306
000160 18 1a 99 be 21 e5 cc be ea 35 25 be 18 46 14 3f
       -0.2990272 -0.4001856 -0.16133848 0.57919455
000170 64 75 b3 be 76 6e 81 be e1 c6 9b 3e 33 4b f1 be
       -0.350505 -0.25279588 0.3042517 -0.47127685
000180 91 28 5c be 57 22 0f bf bf 3f cc be 63 e4 0a 3f
       -0.2149985 -0.55911773 -0.39892384 0.5425474
000190 02 c1 10 3f c9 51 10 3f a0 ba 75 3e 43 6b f8 3e
       0.56544507 0.56374794 0.23996973 0.48519334
0001a0 ba ce fd be ec 23 c3 be 8f 95 e0 be db 0f d7 3e
       -0.49571782 -0.38113344 -0.43864104 0.42004284
0001b0 6a 76 af be 07 8e 08 bf 1c 81 e1 3e 0b df b6 3e
       -0.3427003 -0.53341717 0.44043815 0.35717043
0001c0 f2 c3 83 be 81 b6 29 be 8b b2 9f 3e eb a0 ef be
       -0.25735432 -0.16573526 0.31190905 -0.46802458
0001d0 bc 9b 83 be 2d af b1 be df 15 0b bf 3f 0e 5b be
       -0.25704753 -0.3470396 -0.5433025 -0.21392153
0001e0 f9 9e c6 be 90 f7 94 be 2b 07 39 bf 3e 43 c7 bd
       -0.38793162 -0.29095125 -0.7227656 -0.09729622
0001f0 98 16 b3 be 73 29 9c be ec 36 88 3e 7c 8f a8 be
       -0.34978175 -0.30500373 0.26604402 -0.3292197
000200 38 e3 e7 3e 45 8e 68 3e b5 1f ee 3e 6e 6f 8e be
       0.45290542 0.22710522 0.46508566 -0.2781939
000210 10 b8 9b be fb a5 7b be 1a b6 04 3f 56 6d d8 3e
       -0.30413866 -0.24575035 0.51840365 0.42270917
000220 93 ee f1 3e c7 d5 bb be 80 1b ff 3e 7a 4c f3 3e
       0.4725233 -0.36686537 0.49825668 0.47519284
000230 5c b9 94 3e 45 df a0 be 60 91 e2 3e 5a ca 9c be
       0.29047668 -0.3142034 0.44251537 -0.30623132
000240 aa 06 20 bc e9 19 0e be fc 19 1f 3f ae 18 28 bf
       -0.009767214 -0.13877071 0.62149024 -0.6566266
000250 bb 94 aa be 62 6e a7 be de e6 ed 3e 9b 76 a5 be
       -0.33316597 -0.32701403 0.464652 -0.3231705
000260 5c 7b a6 3e 40 50 b4 bd fb 9a ee 3e 92 34 ad be
       0.3251599 -0.08804369 0.46602616 -0.3382917
000270 af 1b e4 3e 6f 6f fc be 87 56 13 3f bc 49 b2 be
       0.4455237 -0.49303767 0.57553905 -0.3482188
000280 70 48 ad 3e 78 d3 e1 be 07 fb e2 be 75 d6 6d be
       0.33844328 -0.4410665 -0.44332144 -0.2322634
000290 8a e5 f2 be c9 2b 8c be 25 2e a0 be fa b2 c8 3e
       -0.4744075 -0.27377155 -0.31285205 0.39199048
0002a0 83 ba ac 3e 86 4b 1e 3f c3 54 b7 3e 11 57 d8 be
       0.33736047 0.6183399 0.35806856 -0.42253926
0002b0 44 7f 25 bf 9d 87 e9 be ab 75 bb be 67 fd a2 be
       -0.64647317 -0.45611277 -0.3661321 -0.31833956
0002c0 f7 cd b3 3e 7e d4 43 be f0 0f db 3e 83 69 35 be
       0.35118076 -0.19124028 0.42785597 -0.17716031
0002d0 19 38 3d be 25 4b 93 3e d5 90 de 3e ff a7 4d be
       -0.18478431 0.28768268 0.43469873 -0.20083617
0002e0 60 4f e8 3e ab f8 0b bf 90 d6 a9 be a3 50 d8 be
       0.45373058 -0.5467631 -0.3317151 -0.4224902
0002f0 59 19 cc be c7 53 f0 3e 00 28 e2 bd 4f 90 c0 be
       -0.3986309 0.46938917 -0.11042786 -0.376101
000300 c1 8b a6 3e b5 78 85 be d8 73 d6 be e6 6f be 3e
       0.325285 -0.26068655 -0.41885257 0.37194747
000310 4f c3 1a 3f 3a 20 17 bf a6 cc fc 3d 17 f4 b1 be
       0.6045427 -0.5903355 0.12343721 -0.34756538
000320 4d b9 af be 9a ff 99 3c 49 54 a1 be e4 f9 f4 3e
       -0.3432106 0.018798638 -0.31509617 0.478469
000330 77 db 39 be a5 a4 28 3f 8e c6 aa be ab 0d d5 3e
       -0.18150125 0.6587623 -0.3335461 0.4161199
000340 54 e9 d0 be 7d 7c c9 be ff cd dd bd 87 78 b2 be
       -0.40803015 -0.3935279 -0.10830306 -0.3485758
000350 f9 c7 f1 be 6a ba 2a 3f 4d b1 84 3e b0 75 da be
       -0.4722288 0.66690695 0.2591652 -0.42667913
000360 b8 53 04 3f f2 37 15 3f 7f e7 38 3e ea 73 a4 be
       0.51690245 0.5828849 0.18057059 -0.32119685
000370 76 8f 4b be 72 9b 25 3f 5f c1 96 3e 51 fc 0c 3f
       -0.19878945 0.64690316 0.29444405 0.55072504
000380 8f 28 24 3f ca e3 7c bd 40 fa 02 bf b8 f1 90 be
       0.6412439 -0.061740674 -0.511631 -0.28309417
000390 a0 4f 43 be 68 d1 a6 3e 3c 2e 0d bf 01 d6 34 be
       -0.19073343 0.3258164 -0.55148673 -0.17659761
0003a0 36 fa 06 bf 02 a1 05 3f b6 11 21 be 62 d2 c3 be
       -0.5272554 0.52198803 -0.15729412 -0.38246447
0003b0 6f 66 98 be a9 54 aa be 22 a6 96 be ee 6b 16 bf
       -0.2976565 -0.33267716 -0.29423624 -0.5875844
0003c0 fe 91 ce 3e b8 2c e4 bd 05 f7 9a be 33 5d cb 3e
       0.40345758 -0.11141342 -0.30266586 0.39719543
0003d0 56 8e 72 be 86 77 8d be b6 00 5c be 6b e5 b5 3e
       -0.2368711 -0.27630252 -0.21484646 0.35526595
0003e0 29 1b 4e be ac 94 a3 be e4 3a ca be b0 13 6b be
       -0.20127548 -0.31949365 -0.39498055 -0.22956729
0003f0 27 4f 8c 3e c1 15 ac be 2d cd e8 3e 8c 54 cc be
       0.27404138 -0.33610347 0.45469037 -0.39908254

fc2.bias f4 [10]
000000 2c 5e 42 bf b1 9d 20 3f bc 73 92 bd 7a 00 b3 3e
       -0.75924945 0.6274062 -0.07150981 0.349613
000010 cb 2a c4 3e 0c 06 2b bd a1 4f b3 be a9 7e 7d be
       0.38313898 -0.041753814 -0.3502169 -0.24755348
000020 d5 5d 02 3f 50 0f 3e bd
       0.50924426 -0.046401322
